model.pth (torch_old, 113471 bytes, 6 tensors)

fc1.weight f4 [200, 37]
0.12786227 0.21688393 0.22078072 -0.05750991 0.10018304 -0.24518162 0.15673974 0.12654358
0.060233496 0.13611494 -0.038190156 0.35042602 -0.12013007 0.16284695 0.2454372 -0.12735657
0.21348132 0.10503086 0.10349502 0.1166263 -0.11978438 0.14605562 -0.17942202 0.2662154
-0.16040832 0.18751933 0.060453314 -0.29036832 -0.41698918 -0.5373922 -0.19773932 0.04667239
0.01452698 -0.0013250259 -0.0092282705 0.064526476 -0.021930076 -0.1259592 0.07529252 0.0110869175
0.13116148 -0.091656394 0.119787015 0.055736933 0.06352599 -0.055371303 -0.07335848 0.46404836
-0.3824508 -0.55938333 -0.052463785 -1.2482699 0.027914893 -0.00643844 0.124962926 0.041240312
0.06967449 0.2493949 0.04754732 -0.040608365 -0.044629533 -0.20892124 -0.009458124 0.19223239
0.05391163 0.095447056 -0.15673122 0.034856997 0.17282873 0.10468439 0.22769156 0.22855695
0.039775815 0.02324806 0.0047499808 0.15399231 0.110673405 0.030747838 0.048049603 0.05421605
0.15328455 -0.0092234025 -0.10198434 -0.28938052 -0.10864782 -0.122924075 0.08902133 0.10781878
-0.1183148 -0.055459905 -0.011361035 -0.03642703 0.24088174 0.16062793 0.020785863 0.06745333
0.16820043 0.2769689 -0.075549565 0.15904072 0.038082276 0.21906173 0.011540464 0.004154974
0.39559776 -0.45985958 -0.57939506 -0.121066496 -1.6024303 -0.028701214 -0.02244815 -0.16201054
0.030645816 0.21942692 0.14920922 0.19871244 0.060788225 -0.07423876 -0.0027252254 -0.11790274
-0.13025834 0.4204793 -0.054075345 0.10383113 0.07020492 0.018361434 -0.061664175 0.022025209
-0.033669572 -0.0006642543 0.059568476 0.047305815 0.11359237 0.068770446 0.223507 0.4707134
-0.0026905756 0.055039626 0.107134365 -0.114859074 0.31247732 0.15749405 0.1463203 0.24204396
-0.13181406 0.11460426 0.043355633 0.034525998 -0.2280445 -0.37710813 0.22558452 -0.14694391
-0.066978894 0.02369035 -0.018861473 0.16075857 0.087827794 0.15810438 -0.15052684 -0.121368565
-0.25493714 0.029821197 -0.017110959 -0.15613791 -0.06887744 -0.06474253 0.31030533 -0.15665784
-0.6907392 0.119839415 0.10934274 0.025840832 0.17428474 -0.0976552 -0.044832047 -0.005410497
0.20850442 0.29039705 -0.61321086 0.11840303 0.14764453 0.3114697 -0.07131877 -0.20752004
-0.03777296 -0.0028969385 -0.1679779 0.15944196 -0.036586374 0.0030393896 -0.33515462 0.007062644
-0.23669663 0.18593033 0.48696163 -0.15982659 0.37015963 0.024985168 0.17998044 0.13066052
-0.23941676 0.0153835565 0.050746247 -0.09619744 0.23643054 -0.14226824 -0.30619738 0.050718162
0.18801194 0.21591073 -0.23550212 -0.13211271 0.049532637 -0.010349555 0.18502636 -0.06847029
-0.010604859 -0.1698375 0.33180863 0.2326965 -0.031824578 -0.011195567 -0.15171495 0.1212536
-0.06736259 0.04450964 -0.21583557 -0.44374454 -0.13337424 0.006709614 0.45319104 0.10365414
0.030258507 -0.11629179 -0.14275782 0.25793082 0.10522417 0.04831471 -0.19862676 0.021803077
-0.3400748 0.3713271 -0.17176524 -0.19426264 0.03285602 -0.10253105 0.17714965 0.1710105
-0.14613254 -0.08225844 0.039491363 -0.45601478 -0.01519657 0.09743781 -0.003017205 -0.04823911
00000000: 54ee 023e d216 5e3e 5714 623e 838f 6bbd
00000010: c42c cd3d e410 7bbe 6280 203e a494 013e
00000020: 66b7 763d b761 0b3e 486d 1cbd 0a6b b33e
00000030: c106 f6bd 5ac1 263e e453 7b3e c369 02be
00000040: d99a 5a3e 6b1a d73d 32f5 d33d c5d9 ee3d
00000050: 8351 f5bd 9b8f 153e 68ba 37be 634d 883e
00000060: 1442 24be 1105 403e e59d 773d 28ab 94be
00000070: 9b7f d5be 8992 09bf 2d7c 4abe 8c2b 3f3d
00000080: 9202 6e3c 7eac adba 2c32 17bc 7526 843d
00000090: b4a6 b3bc 73fb 00be f732 9a3d e7a5 353c
000000a0: 324f 063e 59b6 bbbd e552 f53d 694c 643d
000000b0: ea19 823d 05cd 62bd f93c 96bd bf97 ed3e
000000c0: 97d0 c3be bf33 0fbf 44e4 56bd 4fc7 9fbf
000000d0: c6ad e43c 8df9 d2bb 90ec ff3d 9aeb 283d
000000e0: 80b1 8e3d 6061 7f3e fbc0 423d f554 26bd
000000f0: 75cd 36bd 73ef 55be 3ff6 1abc 91d8 443e
00000100: 71d2 5c3d bf79 c33d 267e 20be 36c6 0e3d
00000110: 04fa 303e c564 d63d fa27 693e d50a 6a3e
00000120: f7eb 223d b772 be3c baa5 9b3b 29b0 1d3e
00000130: bda8 e23d e4e2 fb3c a9cf 443d a611 5e3d
00000140: a0f6 1c3e c11d 17bc 2add d0bd af29 94be
00000150: c082 debd 9ebf fbbd d150 b63d 18d0 dc3d
00000160: 084f f2bd ed29 63bd a223 3abc 8234 15bd
00000170: b4a9 763e a67b 243e 1d47 aa3c f924 8a3d
00000180: bc3c 2c3e dece 8d3e bbb9 9abd 92db 223e
00000190: 29fc 1b3d b851 603e 3714 3d3c 7326 883b
000001a0: ca8b ca3e b772 ebbe 3c53 14bf b6f1 f7bd
000001b0: 701c cdbf cf1e ebbc 2fe5 b7bc 17e6 25be
000001c0: ef0c fb3c 73b1 603e 4dca 183e 467b 4b3e
000001d0: 13fd 783d 7e0a 98bd b299 32bb fe76 f1bd
000001e0: 7162 05be 1049 d73e 1c7e 5dbd 6aa5 d43d
000001f0: 99c7 8f3d b86a 963c 9393 7cbd 366e b43c
00000200: 1be9 09bd 5a21 2eba 13fe 733d bec3 413d
00000210: 1ea3 e83d 85d7 8c3d 05df 643e 5901 f13e
00000220: 5e54 30bb 3b71 613d 4369 db3d 3c3b ebbd
00000230: 07fd 9f3e 1f46 213e fdd4 153e 5fda 773e
00000240: 44fa 06be a3b5 ea3d ad95 313d 226b 0d3d
00000250: 7f84 69be 5114 c1be a1ff 663e 7778 16be
00000260: 3b2c 89bd 4412 c23c 6083 9abc e59d 243e
00000270: 0fdf b33d 1de6 213e b523 1abe 1590 f8bd
00000280: 1f87 82be 954b f43c 482c 8cbc 9ee2 1fbe
00000290: 9e0f 8dbd bb97 84bd 57e0 9e3e ea6a 20be
000002a0: 49d4 30bf 5e6e f53d 16ef df3d 27b0 d33c
000002b0: b377 323e 73ff c7bd cfa1 37bd 8a4a b1bb
000002c0: 2f82 553e ecae 943e 63fb 1cbf 4a7d f23d
000002d0: 2130 173e f578 9f3e 930f 92bd 2280 54be
000002e0: d2b7 1abd 90da 3dbb 6602 2cbe c144 233e
000002f0: 98db 15bd 7f30 473b 6399 abbe c16d e73b
00000300: 9a60 72be 8564 3e3e 0953 f93e 95a9 23be
00000310: 9085 bd3e b2ad cc3c cb4c 383e dfcb 053e
00000320: ab29 75be 500b 7c3c 4cdb 4f3d 2a03 c5bd
00000330: d91a 723e c4ae 11be e7c5 9cbe d9bd 4f3d
00000340: 3486 403e b417 5d3e 7827 71be 8e48 07be
00000350: bce2 4a3d 2e91 29bc 8d77 3d3e 273a 8cbd
00000360: 01c0 2dbc e2e9 2dbe d2e2 a93e fe47 6e3e
00000370: 7d5a 02bd 9d6d 37bc 2a5b 1bbe cf53 f83d
00000380: 66f5 89bd be4f 363d 0004 5dbe 7c32 e3be
00000390: 4293 08be 52dc db3b a808 e83e 9f48 d43d
000003a0: b0e0 f73c 642a eebd 1b2f 12be 820f 843e
000003b0: c57f d73d a5e5 453d d064 4bbe 5e9c b23c
000003c0: 491e aebe 961e be3e 3ae3 2fbe c9ec 46be
000003d0: 0994 063d cdfb d1bd b866 353e 601d 2f3e
000003e0: c5a3 15be 1d77 a8bd b2c1 213d c57a e9be
000003f0: 09fb 78bc 798d c73d 4dbc 45bb 5f96 45bd

fc1.bias f4 [200]
0.11899982 -0.02088282 0.17071848 0.11232501 -0.12940243 0.05148849 -0.016885553 -0.059338868
0.03821201 0.076069385 -0.18504405 -0.100228414 0.10432656 0.085333556 -0.066558 0.09593825
0.19419125 -0.046578817 -0.1313489 -0.08194557 -0.015859718 -0.11093414 -0.075624585 -0.07888393
-0.08731132 -0.07747648 -0.18666777 -0.14803444 -0.16892643 -1.9906978e-05 0.19509377 0.08550281
0.03633301 -0.036382627 0.014402185 -0.22818981 0.07940999 -0.2918106 -0.14804177 -0.14694971
0.0006728277 -0.2941753 -0.14568862 -0.18894728 0.062456362 -0.066374734 -0.21092099 -0.14915651
0.064201385 -0.019325068 -0.017909186 -0.21406965 -0.06904203 -0.24456838 0.11060535 0.031215608
0.2225402 -0.049561296 -0.034568645 -0.0604325 0.09801015 -0.10815744 0.14880025 -0.066349655
-0.050022103 -0.13307382 -0.17333877 -0.09107622 -0.17519894 -0.041893188 -0.10124073 -0.23276348
-0.014656694 -0.25477225 -0.20189168 -0.0012229193 -0.13132353 -0.13087341 -0.11960481 0.06812666
0.0713621 -0.114708245 -0.09716759 -0.19539896 -0.09312249 -0.035010207 0.017239006 -0.025054373
0.08895172 -0.15709963 0.022583285 0.23143093 -0.011242232 0.057736095 -0.006013992 0.02538807
0.023207687 0.11921822 0.07162978 0.055047754 -0.15500532 -0.11925415 -0.102559924 0.18537863
-0.07649772 0.08788619 -0.1401286 0.017777279 0.022268152 -0.07311185 -0.10211781 -0.0053660553
0.10556829 -0.17625956 -0.13052015 -0.084558785 -0.1238189 -0.050088465 -0.098879725 -0.097816005
-0.012690121 -0.305264 0.11575975 0.0085302 -0.202992 -0.030814638 -0.034860082 -0.1309713
-0.035861854 -0.074961185 -0.007379753 -0.03242215 -0.1461723 0.036677618 -0.14308546 -0.09615586
0.02913458 -0.08133056 0.17532188 -0.044821113 0.030300172 -0.18266067 -0.19193934 -0.02234709
0.09769328 -0.06730704 -0.2105651 -0.10512851 -0.1639229 -0.01786174 -0.096635856 -0.109021746
0.016703203 -0.1848098 -0.043407846 -0.07096708 -0.12011799 0.08872904 -0.04004947 -0.13438201
-0.11201305 0.017107926 -0.08735934 -0.14778101 -0.14973362 -0.084800094 0.055643704 -0.06609676
-0.094936 0.051468983 0.1679177 -0.1361695 -0.019995848 0.079838745 0.035195168 0.13797656
0.11236021 0.07007425 0.1744464 -0.14141147 -0.14492665 0.11046724 0.037517354 -0.10728068
-0.19443104 0.095602594 -0.0970793 -0.12314541 -0.050051454 -0.09163023 -0.09030726 -0.19649437
-0.1824353 0.10092407 -0.09922509 -0.012135928 -0.15925175 -0.042016666 0.000332355 -0.06376011
00000000: 2db6 f33d 7312 abbc d3d0 2e3e a80a e63d
00000010: 1282 04be 98e5 523d 9253 8abc 500d 73bd
00000020: 3284 1c3d 44ca 9b3d 307c 3dbe 8e44 cdbd
00000030: 2aa9 d53d 5cc3 ae3d 904f 88bd 467b c43d
00000040: 12da 463e 6ec9 3ebd 5380 06be 14d3 a7bd
00000050: 3dec 81bc 7031 e3bd 10e1 9abd e68d a1bd
00000060: 47d0 b2bd fdab 9ebd d625 3fbe 5796 17be
00000070: 0dfb 2cbe e9fd a6b7 a9c6 473e 191c af3d
00000080: ecd1 143d f305 15bd 24f7 6b3c 97aa 69be
00000090: b4a1 a23d 3368 95be 4398 17be fc79 16be
000000a0: b460 303a 259e 96be 662f 15be 657b 41be
000000b0: 3ed2 7f3d 7aef 87bd acfb 57be 7cbc 18be
000000c0: 047c 833d 9b4f 9ebc 49b6 92bc 1335 5bbe
000000d0: e865 8dbd 2270 7abe 0f85 e23d e0b7 ff3c
000000e0: 94e1 633e c900 4bbd da97 0dbd 1288 77bd
000000f0: 8cb9 c83d a681 ddbd 185f 183e 54e2 87bd
00000100: fae3 4cbd 8144 08be b87f 31be 2b86 babd
00000110: 5a67 33be 3198 2bbd 4d57 cfbd 8d59 6ebe
00000120: a122 70bc 8271 82be b1bc 4ebe 5d4a a0ba
00000130: ad79 06be ae03 06be 5ef3 f4bd fe85 8b3d
00000140: 4b26 923d 28ec eabd cdff c6bd aa16 48be
00000150: 01b7 bebd dd66 0fbd d138 8d3c d43e cdbc
00000160: 522c b63d bade 20be 9500 b93c 3bfc 6c3e
00000170: 5731 38bc af7c 6c3d 0511 c5bb a4fa cf3c
00000180: 0c1e be3c af28 f43d a2b2 923d c179 613d
00000190: b7b9 1ebe 853b f4bd f00a d2bd e5d3 3d3e
000001a0: d6aa 9cbd adfd b33d df7d 0fbe a8a1 913c
000001b0: b36b b63c aabb 95bd 2423 d1bd bcd5 afbb
000001c0: 3034 d83d 637d 34be 13a7 05be 282d adbd
000001d0: c394 fdbd 9029 4dbd 7481 cabd c253 c8bd
000001e0: 3aea 4fbc 904b 9cbe 7313 ed3d 41c2 0b3c
000001f0: 23dd 4fbe fb6e fcbc 72c9 0ebd 571d 06be
00000200: e1e3 12bd 4085 99bd dbd1 f1bb 17cd 04bd
00000210: 31ae 15be 453b 163d ff84 12be 5ded c4bd
00000220: a5ab ee3c a390 a6bd 9487 333e 5896 37bd
00000230: 1138 f83c 660b 3bbe bf8b 44be 3f11 b7bc
00000240: 6a13 c83d 46d8 89bd 619e 57be 9e4d d7bd
00000250: 68db 27be c952 92bc 05e9 c5bd cb46 dfbd
00000260: 28d5 883c c83e 3dbe 6dcc 31bd 3057 91bd
00000270: 6c00 f6bd 92b7 b53d ea0a 24bd 709b 09be
00000280: 1967 e5bd ec25 8c3c 74e9 b2bd e853 17be
00000290: c553 19be acab adbd a7ea 633d bd5d 87bd
000002a0: ce6d c2bd 24d1 523d 9ef2 2b3e 0470 0bbe
000002b0: 55ce a3bc 7f82 a33d cf28 103d ba49 0d3e
000002c0: 1c1d e63d 1783 8f3d 14a2 323e 2bce 10be
000002d0: a767 14be a63c e23d ccab 193d f9b5 dbbd
000002e0: ee18 47be 4bcb c33d 83d1 c6bd a933 fcbd
000002f0: c102 4dbd a1a8 bbbd 03f3 b8bd d235 49be
00000300: 52d0 3abe 47b1 ce3d 8636 cbbd c5d5 46bc
00000310: e412 23be ab19 2cbd ef3f ae39 a994 82bd

fc2.weight f4 [100, 200]
-0.058351304 -0.032659054 -0.11970863 -0.112341635 0.18423419 -0.190905 -0.106878854 0.05227037
0.10366872 0.05188174 0.13713859 0.039924577 -0.060487624 -0.07917599 -0.49913082 -0.24466626
0.11710641 0.11536675 -0.27876717 0.11517311 -0.22617544 0.115917645 0.087955035 -0.033458635
0.3046416 -0.13290131 -0.122707464 -0.4500229 -0.028356569 -0.09039312 0.021118026 0.14363374
0.19343065 -0.0766396 -0.17517433 -0.33621103 -0.023782646 -0.050581597 0.11787647 -0.3956979
-0.1529561 -0.13370739 -0.0650065 -0.10799323 -0.17164516 -0.047849454 -0.17442149 -0.23946552
-0.06415657 -0.36724767 -0.10592761 0.040278524 -0.32993746 0.10404548 -0.115220256 -0.28243902
-0.0018163342 -0.06336214 -0.04980373 -0.6668702 -0.0017346479 0.14445773 -0.13101771 0.17717099
-0.017858958 -0.11539122 -0.2596135 0.063515574 0.07389864 -0.3910697 -0.04730355 0.027278837
-0.03595525 0.104225196 -0.33838904 0.14910999 -0.31637618 0.15537459 0.09419386 -0.07339785
-0.10975763 -0.30328074 -0.21834418 0.05601953 -0.3369928 -0.20446381 0.12967148 -0.06384293
0.0037266829 -0.10585947 -0.123483434 0.10617385 0.11358816 -0.06796841 -0.17415118 0.00426938
0.218442 0.062296294 -0.09429563 -0.12838316 0.05364291 -0.07286734 -0.0017390222 -0.2915046
-0.11969541 -0.2168815 0.11970457 -0.09234979 -0.16784161 -0.38543755 0.075300716 -0.046567183
0.03139107 -0.20750679 0.15487106 0.13223167 -0.24574004 0.09285027 0.14756896 0.18710294
0.2048129 0.281585 -0.034505263 -0.031266727 -0.3286075 -0.23454086 -0.2424435 0.32600725
-0.2127732 -0.13514473 -0.46721262 -0.012979 0.11612329 -0.1571978 -0.31200084 -0.5466916
-0.4182473 0.071991935 -0.13355252 -0.24136257 -0.012799925 -0.5396963 -0.4867997 0.03193975
-0.30557522 -0.10018536 -0.2732036 -0.32032287 0.099963255 0.1534708 -0.061539277 -0.03150127
-0.165217 -0.14300948 -0.022748087 -0.031307846 -0.029184232 0.026031045 -0.2524212 -0.1559707
0.15741074 -0.42398745 -0.21153814 -0.4782221 -0.042429633 -0.13107175 -0.31775108 0.14661554
0.16377938 0.04328484 0.09512453 -0.41683522 -0.22717196 -0.3612242 0.120101675 -0.09379211
0.018253867 -0.01387297 0.06559568 -0.12955937 0.043732267 0.08874172 -0.008993186 0.08732833
-0.30942795 -0.0006024553 -0.14892802 -0.22298083 -0.121456385 -0.21276121 -0.020416964 -0.27924833
-0.40582243 -0.0551769 -0.4674948 -0.1341152 -0.18458717 -0.25279337 -0.40747324 -0.21820517
0.041289523 0.017382909 0.14187367 0.20955512 -0.001776261 0.004539372 -0.011969822 -0.17516804
0.119226635 0.09319716 -0.07711663 0.051989883 -0.028234543 0.08804122 0.029785112 -0.0031721285
0.17784911 0.035140067 -0.016856818 -0.07927726 0.11659507 0.37114933 0.08624437 -0.3153477
0.17179029 0.011466649 0.1277172 -0.11477629 0.12764886 -0.09350676 0.122752726 0.11911655
0.09213555 0.028907651 -0.16872439 -0.06538762 0.046968658 0.043171894 0.08748372 -0.02508391
-0.055321533 -0.08794307 -0.116084024 -0.024688777 0.10803811 -0.05147687 -0.060493 -0.019249756
0.097417876 0.124143526 0.014081811 -0.12618159 0.0035200664 0.09908536 -0.082658835 -0.195991
00000000: c701 6fbd 80c5 05bd cc29 f5bd 5f13 e6bd
00000010: e3a7 3c3e 9a7c 43be 4de3 dabd 7519 563d
00000020: 4450 d43d f381 543d 0f6e 0c3e f487 233d
00000030: dfc1 77bd 0527 a2bd 138e ffbe cb89 7abe
00000040: 7cd5 ef3d 6745 ec3d 92ba 8ebe e1df eb3d
00000050: 899a 67be 3b66 ed3d c521 b43d ec0b 09bd
00000060: fcf9 9b3e 4817 08be 0d4e fbbd 6769 e6be
00000070: 094c e8bc 0720 b9bd b6ff ac3c b914 133e
00000080: af12 463e 39f5 9cbd e660 33be da23 acbe
00000090: d3d3 c2bc a62e 4fbd 3869 f13d ea98 cabe
000000a0: 86a0 1cbe 97ea 08be 2122 85bd 8e2b ddbd
000000b0: c0c3 2fbe cafd 43bd 8c9b 32be 7336 75be
000000c0: 8564 83bd e307 bcbe 93f0 d8bd 18fb 243d
000000d0: 90ed a8be cc15 d53d 99f8 ebbd d99b 90be
000000e0: 1012 eeba 02c4 81bd fffe 4bbd 01b8 2abf
000000f0: 205d e3ba baec 133e 8229 06be 506c 353e
00000100: f34c 92bc 3b52 ecbd 10ec 84be 7414 823d
00000110: 2c58 973d 4a3a c8be 5ec1 41bd de77 df3c
00000120: d045 13bd 0574 d53d 5441 adbe 4ab0 183e
00000130: 0ffc a1be 841a 1f3e b6e8 c03d 9d51 96bd
00000140: 9cc8 e0bd 9d47 9bbe 9e95 5fbe bc74 653d
00000150: 528a acbe f65e 51be 9ac8 043e 15c0 82bd
00000160: 5d3b 743b dacc d8bd e2e4 fcbd ad71 d93d
00000170: e9a0 e83d 0633 8bbd b054 32be 28e6 8b3b
00000180: 42af 5f3e 662a 7f3d 111e c1bd e076 03be
00000190: abb8 5b3d 793b 95bd e7ef e3ba 1740 95be
000001a0: de22 f5bd 2f16 5ebe ab27 f53d e321 bdbd
000001b0: acde 2bbe 1258 c5be 4337 9a3d 3bbd 3ebd
000001c0: ec93 003d a97c 54be 8596 1e3e bd67 073e
000001d0: 47a3 7bbe 4828 be3d 511c 173e ea97 3f3e
000001e0: 79ba 513e e92b 903e 6455 0dbd 8a11 00bd
000001f0: 3e3f a8be 7b2b 70be 1c43 78be 6cea a63e
00000200: 38e1 59be 6163 0abe 7e36 efbe dfa5 54bc
00000210: 0cd2 ed3d 76f8 20be 93be 9fbe fbf3 0bbf
00000220: 8324 d6be 8270 933d fec1 08be c027 77be
00000230: c7b6 51bc 8929 0abf cf3d f9be 41d3 023d
00000240: 5b74 9cbe fb2d cdbd 58e1 8bbe 5c01 a4be
00000250: 89b9 cc3d 7327 1d3e 9c10 7cbd 7a07 01bd
00000260: a52e 29be 1471 12be 325a babc a83c 00bd
00000270: c513 efbc 0f3f d53c 5a3d 81be c8b6 1fbe
00000280: 4830 213e e214 d9be 749d 58be 87d9 f4be
00000290: b2ca 2dbd ac37 06be 45b0 a2be 6222 163e
000002a0: c8b5 273e 724b 313d a6d0 c23d 6d6b d5be
000002b0: c49f 68be 61f2 b8be def7 f53d 1416 c0bd
000002c0: 2289 953c 744b 63bc 0757 863d 36ab 04be
000002d0: 9b20 333d 38be b53d 2858 13bc 32d9 b23d
000002e0: 576d 9ebe 17ee 1dba 9680 18be 1655 64be
000002f0: 20be f8bd 13de 59be 7a41 a7bc a3f9 8ebe
00000300: f5c7 cfbe 2c01 62bd 7a5b efbe 7f55 09be
00000310: 6b04 3dbe 226e 81be 55a0 d0be 2d71 5fbe
00000320: 341f 293d 9a66 8e3c 5547 113e 9e95 563e
00000330: 6ed1 e8ba 03bf 943b 131d 44bc 405f 33be
00000340: 182d f43d 27de be3d 53ef 9dbd 58f3 543d
00000350: 214c e7bc f54e b43d e8ff f33c 7ce3 4fbb
00000360: 141e 363e 08ef 0f3d 4f17 8abc 1e5c a2bd
00000370: 65c9 ee3d 4907 be3e e3a0 b03d 4175 a1be
00000380: cbe9 2f3e 9dde 3b3c 4cc8 023e d50f ebbd
00000390: 62b6 023e 7980 bfbd c865 fb3d 61f3 f33d
000003a0: 90b1 bc3d bdcf ec3c 16c6 2cbe f2e9 85bd
000003b0: 3562 403d 03d5 303d aa2a b33d c67c cdbc
000003c0: d598 62bd 7f1b b4bd 76bd edbd 1e40 cabc
000003d0: 1643 dd3d 69d9 52bd 82c7 77bd aab1 9dbc
000003e0: 0683 c73d f63e fe3d 65b7 663c bf35 01be
000003f0: eab0 663b 44ed ca3d 0949 a9bd ddb1 48be

fc2.bias f4 [100]
0.006552574 0.4757791 -0.029833298 -0.0015738123 -0.012527772 -0.054027017 -0.14439648 -0.11669875
-0.15079215 0.0118622035 0.27542517 0.0752407 0.18830362 0.006226409 -0.07576871 -0.059309635
0.018116146 -0.12922406 0.093710504 -0.02303366 -0.11711431 -0.054825194 -0.20817667 -0.07140564
0.09240702 0.006956878 -0.074271604 0.12920238 -0.06558979 -0.019323222 -0.022485854 -0.09651928
-0.080014974 -0.112906925 0.048310626 0.14048101 -0.042916812 0.1636276 -0.1905301 0.21776402
-0.14311299 0.13032164 0.49295974 0.23963541 -0.05512828 -0.036838736 -0.10628078 0.030609785
0.098428555 0.04357696 0.17427042 -0.15510808 -0.016907498 0.46778956 -0.044844598 -0.123772554
-0.108812496 -0.10565232 -0.017434442 -0.05793118 -0.051612817 0.48965535 0.017612666 0.01386949
-0.028101033 -0.057788197 0.22825904 0.016708149 0.15755036 -0.024959946 0.0010590985 -0.0582178
-0.046541687 0.081121944 -0.036676116 -0.04504075 0.25441852 0.12139028 -0.06600374 -0.027416779
-0.06487995 0.069420666 -0.012736904 0.3627148 -0.18537258 0.17064396 0.029983949 -0.03872641
-0.024596056 0.26916 -0.09390527 0.1681005 -0.029350022 -0.10581921 0.10469163 -0.033217005
0.010354608 -0.06041465 -0.08579859 0.048034433
00000000: fab6 d63b 5199 f33e f664 f4bc 6148 ceba
00000010: 4941 4dbc 6f4b 5dbd acdc 13be c1ff eebd
00000020: 4269 1abe b059 423c 8704 8d3e cc17 9a3d
00000030: aad2 403e e806 cc3b a02c 9bbd a9ee 72bd
00000040: 5068 943c 5053 04be 4beb bf3d 16b1 bcbc
00000050: a1d9 efbd 6290 60bd 442c 55be 1f3d 92bd
00000060: e43f bd3d 86f6 e33b b61b 98bd a14d 043e
00000070: f153 86bd bc4b 9ebc 4134 b8bc e6ab c5bd
00000080: e4de a3bd bf3b e7bd 5de1 453d 41da 0f3e
00000090: 8ac9 2fbd fe8d 273e 531a 43be 88fd 5e3e
000000a0: 368c 12be 0973 053e 3865 fc3e fc62 753e
000000b0: 31ce 61bd 37e4 16bd bda9 d9bd 5fc1 fa3c
000000c0: e994 c93d c17d 323d f273 323e a7d4 1ebe
000000d0: 9881 8abc 1d82 ef3e f8ae 37bd 777c fdbd
000000e0: 16d9 debd 3e60 d8bd add2 8ebc 3f49 6dbd
000000f0: f667 53bd 1bb4 fa3e 7048 903c db3c 633c
00000100: 2334 e6bc 51b3 6cbd bdbc 693e 87df 883c
00000110: e254 213e cd78 ccbc 73d1 8a3a ca75 6ebd
00000120: 7fa2 3ebd 4323 a63d b239 16bd a67c 38bd
00000130: 2543 823e 789b f83d f82c 87bd 2799 e0bc
00000140: c7df 84bd 6c2c 8e3d 73ae 50bc c1b5 b93e
00000150: 4fd2 3dbe 4abd 2e3e e6a0 f53c 969f 1ebd
00000160: ab7d c9bc 57cf 893e 6851 c0bd 8a22 2c3e
00000170: 756f f0bc beb7 d8bd 9168 d63d 8e0e 08bd
00000180: 60a6 293c 5a75 77bd 2cb7 afbd c1bf 443d

fc3.weight f4 [4, 100]
-0.47014052 0.11160208 0.31974804 0.085933745 -0.3379762 -0.3129379 -0.25824437 0.23850583
-0.120139994 0.38939494 0.06993804 0.21672869 0.12987903 -0.12512523 0.32177317 0.34572345
0.069724575 -0.3309803 0.037337974 0.30047312 -0.30693516 0.2776091 -0.295897 -0.022791456
0.11369347 -0.08937836 0.051216792 0.19058956 -0.112646826 -0.02817132 0.22964613 -0.07727764
0.046282597 -0.58400095 0.20694534 0.04182964 -0.21317367 0.16504617 -0.39445972 0.15686499
-0.38244897 0.28858525 0.13238326 0.08194327 0.052319247 -0.19270389 -0.40936914 0.20635134
0.14926784 0.4625206 0.2618974 -0.28922367 0.42925632 0.11276414 0.10109398 -0.22497758
0.20865762 -0.50777996 0.09412949 -0.13595957 0.2578604 0.14117174 0.37561366 -0.7848463
0.00068355864 -0.04142324 0.06586141 0.50526005 0.0033217156 -0.23358718 -0.55889094 -0.44373843
-0.61132544 0.24851301 0.23337644 -0.461281 0.13167565 0.0021559147 -0.09314944 -0.39940888
-0.18901339 0.27278733 0.20417456 0.15730643 -0.28984523 0.10239276 0.4842322 0.28333893
-0.30693287 0.10000655 -0.08850115 0.07760592 -0.07221352 -0.23029599 0.3140707 0.14931688
0.46099257 -0.011048768 0.2740346 -0.4116867 -0.12573496 0.14197636 0.22811729 -0.081949994
-0.06726537 -0.21563932 -0.15836523 0.0998804 -0.11827139 0.1184437 0.1643756 0.2065573
0.16160607 -0.17526379 0.32373264 -0.25221515 0.074654296 -0.28414652 0.13281623 0.045079038
-0.20060135 -0.09399209 -0.18325707 0.007859268 0.11806028 0.0034998918 -0.10700578 0.13304597
0.2106621 -0.10604116 0.28787714 0.028646396 0.069771886 0.06258354 0.36395973 0.13769628
0.073080614 0.14004515 -0.25168023 0.14853121 0.12733679 0.22332121 0.14546305 0.17006208
0.14244491 0.033678357 -0.17557026 -0.22688256 0.23790802 0.16953076 0.15478976 -0.06584998
0.056652814 0.057706904 0.06640003 -0.11166254 -0.08718554 -0.020978471 -0.14229412 0.077437945
-0.2155661 0.17944632 -0.08411785 0.062023666 -0.08675218 0.1322147 0.08998249 0.38311496
0.019279044 0.122444436 0.021234227 -0.30036688 -0.12006609 0.1852409 0.35362855 -0.16395828
0.10654665 0.1808455 -0.0078462735 0.042412315 -0.09972344 0.12071092 0.09399164 0.035266027
-0.17249382 0.04756358 0.26351625 0.27060995 0.14441699 0.011626317 -0.16360939 0.13241126
-0.080591306 -0.14710543 0.30258974 0.25774318 0.2799061 -0.02243792 0.13998424 0.032809168
-0.03392145 0.0854517 0.46772093 -0.26879215 -0.2860551 0.5105156 0.08442418 -0.18032749
0.19700214 0.09684642 -0.021661382 0.17604916 0.20607187 0.37022376 0.3469919 -0.08347822
-0.05687502 0.045351434 -0.6330478 0.13821588 -0.24363661 0.3774591 0.021519426 -0.4533375
-0.28771025 0.14968443 0.03700228 0.29140848 -0.06594109 0.08467682 0.49610668 0.11212433
0.034055624 -0.07548117 0.2018157 0.29228547 0.50464165 0.0024912686 -0.3736611 -0.03942764
-0.1809234 0.1257451 0.1753398 0.15235469 -0.1517417 -0.22331186 -0.24598224 -0.08434368
0.21595973 -0.362293 0.2543459 -0.09957711 0.40434653 0.04485185 -0.08441181 0.19783458
00000000: 42b6 f0be a28f e43d 04b6 a33e 08fe af3d
00000010: 370b adbe 6539 a0be 9b38 84be df3a 743e
00000020: f50b f6bd c65e c73e ad3b 8f3d 20ee 5d3e
00000030: 02ff 043e d420 00be 74bf a43e aa02 b13e
00000040: c2cb 8e3d 4076 a9be b4ef 183d 9dd7 993e
00000050: 9b26 9dbe c822 8e3e d07f 97be 26b5 babc
00000060: 1fd8 e83d 000c b7bd b3c8 513d e929 433e
00000070: 61b3 e6bd 8ac7 e6bc 5b28 6b3e bd43 9ebd
00000080: d292 3d3d 1681 15bf 7be9 533e 8e55 2b3d
00000090: 334a 5abe dd01 293e a0f6 c9be 37a1 203e
000000a0: 5ad0 c3be 72c1 933e 7a8f 073e e0d1 a73d
000000b0: b54c 563d 2b54 45be d598 d1be c44d 533e
000000c0: abd9 183e 80cf ec3e 6a17 863e 2015 94be
000000d0: 7cc7 db3e e3f0 e63d 5c0a cf3d 8660 66be
000000e0: 58aa 553e defd 01bf f6c6 c03d fc38 0bbe
000000f0: 4706 843e 538f 103e 6f50 c03e b0eb 48bf
00000100: d830 333a 6aab 29bd 59e2 863d b958 013f
00000110: 24b1 593b 7a31 6fbe 7a13 0fbf af31 e3be
00000120: d37f 1cbf 327a 7e3e 3cfa 6e3e 062d ecbe
00000130: fbd5 063e 3f4a 0d3b 22c5 bebd 527f ccbe
00000140: ba8c 41be c8aa 8b3e 2313 513e f014 213e
00000150: 9866 94be 4cb3 d13d 48ed f73e cd11 913e
00000160: 4e26 9dbe 3cd0 cc3d 1740 b5bd daef 9e3d
00000170: afe4 93bd b6d2 6bbe e0cd a03e 86e6 183e
00000180: 3807 ec3e e405 35bc 434e 8c3e 99c8 d2be
00000190: aac0 00be 4062 113e 9497 693e 66d5 a7bd
000001a0: 6dc2 89bd 8ed0 5cbe 7f2a 22be 188e cc3d
000001b0: 4538 f2bd 9c92 f23d 1452 283e c283 533e
000001c0: 107c 253e 5a78 33be 49c0 a53e 5822 81be
000001d0: 5ae4 983d a77b 91be fa00 083e cca4 383d
000001e0: 716a 4dbe ed7e c0bd bea7 3bbe 29c4 003c
000001f0: 97c9 f13d 715e 653b d925 dbbd 343d 083e
00000200: ceb7 573e 1c2c d9bd a264 933e d9ab ea3c
00000210: 90e4 8e3d cd2b 803d ee58 ba3e 4100 0d3e
00000220: 4aab 953d ff67 0f3e 3bdc 80be 9118 183e
00000230: 9364 023e 51ae 643e 44f4 143e c124 2e3e
00000240: 14dd 113e 51f2 093d b1c8 33be e753 68be
00000250: 299e 733e 7999 2d3e 3581 1e3e 5bdc 86bd
00000260: c80c 683d 135e 6c3d bdfc 873d 54af e4bd
00000270: 558e b2bd 0bdb abbc 8db5 11be c997 9e3d
00000280: 5cbd 5cbe c7c0 373e fb45 acbd 870c 7e3d
00000290: 20ab b1bd 4a63 073e bd48 b83d a527 c43e
000002a0: 16ef 9d3c 26c4 fa3d 67f3 ad3c b0c9 99be
000002b0: 36e5 f5bd caaf 3d3e cd0e b53e aee4 27be
000002c0: 2135 da3d 902f 393e a88d 00bc 89b8 2d3d
000002d0: ce3b ccbd 4937 f73d b07e c03d 1c73 103d
000002e0: 38a2 30be 07d2 423d 9aeb 863e 638d 8a3e
000002f0: 0ce2 133e 4f7c 3e3c 3889 27be d196 073e
00000300: 0e0d a5bd cea2 16be 0bed 9a3e eaf6 833e
00000310: da4f 8f3e bbcf b7bc 0758 0f3e e862 063d
00000320: 38f1 0abd 4d01 af3d 1e79 ef3e 209f 89be
00000330: d075 92be 26b1 023f 96e6 ac3d c5a7 38be
00000340: eeba 493e 6a57 c63d 3673 b1bc 3b46 343e
00000350: 8104 533e f88d bd3e eca8 b13e a1f6 aabd
00000360: c8f5 68bd 6dc2 393d 6c0f 22bf 7788 0d3e
00000370: e07b 79be 5242 c13e 8249 b03c da1b e8be
00000380: c24e 93be e046 193e b48f 173d 7e33 953e
00000390: 1f0c 87bd 0a6b ad3d b201 fe3e 71a1 e53d
000003a0: e97d 0b3d df95 9abd c6a8 4e3e 71a6 953e
000003b0: 3230 013f 8d44 233b 8250 bfbe e17e 21bd
000003c0: fc43 39be 53c3 003e 478c 333e de02 1c3e
000003d0: 2d62 1bbe ddab 64be c5e2 7bbe 61bc acbd
000003e0: 8c24 5d3e 787e b9be a039 823e 15ef cbbd
000003f0: 8206 cf3e 93b6 373d 19e0 acbd 2695 4a3e

fc3.bias f4 [4]
0.33997658 0.25251237 0.33479854 0.28650022
00000000: 6911 ae3e 4d49 813e b76a ab3e 28b0 923e
